noteBooks/13_PytorchMechanics/lightning_logs/version_1/checkpoints/epoch=9-step=8600.ckpt (torch, 319243 bytes, 18 tensors)

Model.1.weight f4 [32, 784]
-0.00026738644 0.019158702 -0.02939447 -0.026283538 -0.013755513 0.009577051 -0.00070761517 0.028317485
-0.0031694286 0.009450451 -0.010793325 -0.007020192 -0.03411959 -0.023652934 -0.014722254 0.0013229847
0.014119115 0.021429386 -0.024212182 -0.015552245 0.012972042 0.029656712 -0.007350007 0.026725423
-0.0057565495 0.003779076 0.032338437 -0.033131085 -0.022483498 -0.009041617 -0.013921427 0.030857172
-0.15855344 -0.26182553 -0.4975932 -0.31104925 -0.19686043 -0.25806248 -0.5240313 -0.5936209
-0.7699669 -0.46628943 -0.12952892 0.6034221 0.47609466 0.39348108 -0.18493535 -0.47859126
-0.7269866 -0.41402572 -0.40619844 -0.12293992 0.0141743645 0.0048247464 0.023945943 -0.021028657
0.0066551454 -0.027689483 -0.024753079 0.23440675 0.060574178 -0.4080443 -0.89016354 -0.85663223
-0.42511374 -0.5222774 -1.3584794 -2.2128932 -1.918913 -1.4141054 -1.86631 -0.63699824
0.2515615 0.06121507 -0.9235188 -0.917782 -0.99323636 -1.4363747 -0.7304999 -0.4503621
-0.3161634 -0.78582954 0.027155709 -0.035626 0.006684717 -0.0060164295 -0.5495408 -0.8742181
-0.77110803 -1.191056 -1.5676056 -2.6096954 -2.963183 -3.1247714 -3.6379428 -2.7184477
-3.58439 -2.9921992 -3.4561222 -3.3440661 -1.7731324 0.25591153 0.4208187 -0.77551395
-0.88532525 -0.7059457 -0.23446259 -1.6211568 -2.4131608 -1.3824763 -1.1841496 0.021192059
-0.021733541 0.019900212 0.092232235 -0.5916791 -1.0468744 -1.2165289 -0.7956133 -1.366203
-2.7066133 -3.3428319 -1.8829122 -0.7643587 -1.0932908 -1.1424012 -1.1943402 -0.8029535
-0.1875785 0.033528253 -0.034595463 0.1814523 -0.38534966 0.11818022 0.8782212 0.782242
1.0693935 0.31379846 0.14476365 -0.63745236 0.03383022 0.02268057 -0.00835009 -0.21750662
-1.916636 -0.037346732 0.081658825 -0.3452158 -0.47432438 -0.069203116 0.87432927 0.8255332
1.3374941 0.68110526 -0.24438809 -0.14457338 -0.85139966 -0.3521631 -0.38780746 -0.40995064
-0.4522196 -0.47105286 -0.30659497 -0.04490888 1.2085247 1.336142 -1.6043589 -0.48533264
-0.032144945 -0.16701962 0.43696132 -0.26429623 -0.70311236 0.21506457 -0.010569205 0.04543454
0.49658957 0.28149787 -0.42390108 -0.29094186 -0.14234939 -0.019339085 -0.10146191 -0.6024096
-0.004502322 0.2856293 -0.38831452 -0.30683106 0.15955944 0.37700984 -0.2012023 0.5140865
0.3225555 0.5895097 0.7805218 0.5882737 0.05708061 -1.8662263 0.18446794 1.4103473
0.74621737 1.2718158 -0.074107006 -1.4469479 0.14747481 -0.626339 -0.48255587 -0.5715649
-0.29464617 -0.09486186 -0.36730644 -0.18647484 -0.6063204 -0.13224275 -0.14882798 0.0040302062
-0.30578643 0.27986914 0.16772585 0.9526985 0.43990284 0.7435522 0.15733454 -0.8515516
-1.6576608 -1.2540075 0.025479859 0.943502 1.8632927 1.4087075 0.4356937 0.055957414
0.5712768 -0.1914293 -0.64856356 -0.27597094 -1.2911344 -0.85892713 -0.09501588 -0.19817354
-1.3069785 -0.53462875 0.5044886 -0.14887404 -0.07289664 0.40062055 -1.0531245 -0.13744932
1.5755237 1.4129668 0.8681781 -0.37520882 -0.049044695 -1.0574102 -0.68163455 -0.7289029
00000000: 0030 8cb9 b6f2 9c3c accc f0bc 9350 d7bc
00000010: ce5e 61bc 10e9 1c3c 407f 39ba 12fa e73c
00000020: 30b6 4fbb 10d6 1a3c 7cd6 30bc a409 e6bb
00000030: fcc0 0bbd ccc3 c1bc 9c35 71bc 0068 ad3a
00000040: dc53 673c ae8c af3c a058 c6bc d8ce 7ebc
00000050: b088 543c a2f2 f23c 54d8 f0bb 46ef da3c
00000060: 70a1 bcbb 60aa 773b 4f75 043d 76b4 07bd
00000070: 502f b8bc 4a23 14bc b216 64bc 2ec8 fc3c
00000080: d55b 22be ff0d 86be 89c4 febe d941 9fbe
00000090: c895 49be c420 84be ea26 06bf 8af7 17bf
000000a0: 8d1c 45bf 7dbd eebe 3ba3 04be df79 1a3f
000000b0: aec2 f33e 5a76 c93e b15f 3dbe ea09 f5be
000000c0: cb1b 3abf 2efb d3be 3ef9 cfbe edc7 fbbd
000000d0: 983b 683c e818 9e3b 482a c43c 4a44 acbc
000000e0: 6813 da3b 0ed5 e2bc f8c6 cabc 5308 703e
000000f0: a11c 783d 2feb d0be c2e1 63bf 404c 5bbf
00000100: 82a8 d9be f9b3 05bf a7e2 adbf 0ba0 0dc0
00000110: f19e f5bf 6801 b5bf 3fe3 eebf 5112 23bf
00000120: abcc 803e a7bc 7a3d ba6b 6cbf c3f3 6abf
00000130: bd44 7ebf 20db b7bf 0b02 3bbf dc95 e6be
00000140: 2be0 a1be 202c 49bf a675 de3c 92ec 11bd
00000150: 780b db3b 7825 c5bb b5ae 0cbf c2cc 5fbf
00000160: 5667 45bf 8674 98bf 4da7 c8bf 4005 27c0
00000170: caa4 3dc0 41fc 47c0 0ed4 68c0 0cfb 2dc0
00000180: a566 65c0 3180 3fc0 1b31 5dc0 2e05 56c0
00000190: 01f6 e2bf d606 833e 8c75 d73e 1588 46bf
000001a0: ada4 62bf dbb8 34bf f616 70be 1182 cfbf
000001b0: 3a71 1ac0 fcf4 b0bf 3792 97bf f89a ad3c
000001c0: 8a0a b2bc c505 a33c 41e4 bc3d 4878 17bf
000001d0: fbff 85bf 38b7 9bbf 50ad 4bbf bddf aebf
000001e0: 2739 2dc0 f5f0 55c0 4403 f1bf 03ad 43bf
000001f0: f4f0 8bbf 343a 92bf 24e0 98bf 5c8e 4dbf
00000200: 9414 40be ec54 093d f9b3 0dbd a2ce 393e
00000210: 8d4c c5be 7908 f23d 1bd3 603f 0341 483f
00000220: e3e1 883f 31aa a03e ec3c 143e 1430 23bf
00000230: 8f91 0a3d 9acc b93c d1ce 08bc 0eba 5ebe
00000240: 5454 f5bf e3f8 18bd be3c a73d 20c0 b0be
00000250: a5da f2be 5dba 8dbd 0bd4 5f3f 2556 533f
00000260: 0233 ab3f ea5c 2e3f df40 7abe 0b0b 14be
00000270: 54f5 59bf b94e b4be b38e c6be 0de5 d1be
00000280: 5489 e7be d72d f1be 04fa 9cbe 60f2 37bd
00000290: f0b0 9a3f b306 ab3f a25b cdbf 857d f8be
000002a0: 6baa 03bd 3107 2bbe 65b9 df3e d651 87be
000002b0: 2cff 33bf e339 5c3e 752a 2dbc 9119 3a3d
000002c0: fd40 fe3e 7d20 903e 9009 d9be 55f6 94be
000002d0: 0ac4 11be 006d 9ebc 43cb cfbd 8437 1abf
000002e0: 3788 93bb 013e 923e 29d1 c6be f618 9dbe
000002f0: 8d63 233e 6f07 c13e fa07 4ebe 2c9b 033f
00000300: ff25 a53e 1cea 163f 47d0 473f 1b99 163f
00000310: 5ccd 693d 81e0 eebf 2ae5 3c3e 4386 b43f
00000320: 1a08 3f3f dcca a23f 6ac5 97bd 9735 b9bf
00000330: a303 173e c157 20bf 9011 f7be 1452 12bf
00000340: dddb 96be ef46 c2bd 970f bcbe 43f3 3ebe
00000350: d037 1bbf a56a 07be 5d66 18be d20f 843b
00000360: 0a90 9cbe 024b 8f3e 53c0 2b3e 0de4 733f
00000370: f23a e13e 7059 3e3f 4e1c 213e 49ff 59bf
00000380: 3b2e d4bf 5183 a0bf 23bb d03c 5989 713f
00000390: 6080 ee3f 8750 b43f 3f13 df3e 9a33 653d
000003a0: 323f 123f 0b06 44be 4308 26bf 104c 8dbe
000003b0: e443 a5bf a6e2 5bbf b097 c2bd 01ee 4abe
000003c0: 124b a7bf 6edd 08bf 2a26 013f 7072 18be
000003d0: d54a 95bd 231e cd3e c9cc 86bf 84bf 0cbe
000003e0: c3aa c93f 19dc b43f ec40 5e3f 5f1b c0be
000003f0: 17e3 48bd 3859 87bf 9a7f 2ebf 6199 3abf

Model.1.bias f4 [32]
0.006957973 -0.058786325 1.0234582 1.0010171 0.60391885 -0.085925266 -1.3110209 0.20583436
-1.5213094 -0.0798179 1.1226258 0.018178815 -0.027989892 1.5095088 0.52183867 -1.9050751
-0.66950256 -1.1784018 -0.107531026 0.1668821 0.6969841 -0.7074582 0.4429652 -0.04072041
-1.0105966 -0.24433708 0.28873387 -0.05318016 1.1545911 -1.1674064 0.4096474 -0.7731286
00000000: b5ff e33b eec9 70bd ae00 833f 5421 803f
00000010: 6d9a 1a3f 96f9 afbd 88cf a7bf 3ec6 523e
00000020: 44ba c2bf 9177 a3bd 34b2 8f3f bdeb 943c
00000030: 0f4b e5bc 9637 c13f 3897 053f 80d9 f3bf
00000040: 8564 2bbf dfd5 96bf 3a39 dcbd 24e3 2a3e
00000050: 8d6d 323f fb1b 35bf 56cc e23e 72ca 26bd
00000060: 3b5b 81bf 8033 7abe edd4 933e 70d3 59bd
00000070: a4c9 933f 936d 95bf 4ebd d13e c2eb 45bf

Model.3.weight f4 [16, 32]
0.4724454 0.013048172 -0.25201288 1.073936 -1.7197307 -0.15816669 -1.4308462 0.4153183
0.058542382 -0.11633991 0.015539091 0.1536412 -0.10210504 -0.024212686 0.2296794 0.21804936
-1.244875 -0.8037962 -1.2584729 0.5915924 0.35326213 0.18201688 -0.49526674 -1.0566303
-0.06081414 -1.5293671 -0.42660618 -0.1592 -0.08673971 -1.1930492 -1.1238936 -1.7770318
-0.6967835 0.18775706 0.7181126 -0.9018039 -0.4401209 0.0346846 -0.3209069 -1.654945
0.40192553 -0.07007355 0.19174749 0.47975114 -0.104325235 0.5723866 0.29587558 -0.9472405
-0.27368125 0.27437937 -0.7138315 0.7923903 -0.05804889 -0.40226483 0.3661492 0.75102735
0.33537385 -0.2634494 -0.3344604 -0.066959776 1.4535825 -0.60146844 0.5819546 -0.9928906
0.072119996 0.003024117 -0.55327934 -0.5101644 0.42432898 0.17285524 -0.10333075 0.16120768
-0.82227093 -0.01642439 0.0962878 -0.641069 -0.00025385618 -0.054489408 -0.39171165 0.48288402
0.45935345 -0.20760849 0.44027716 -0.3432753 0.41263717 -1.0245135 -0.104214676 -0.16545235
0.13849181 0.29963842 -0.0046576224 0.23058683 -1.3864467 -0.14034525 -0.7870893 0.34075734
-0.05343317 0.030940086 -0.4729599 -0.91276085 -0.75955963 -0.04255359 0.29007545 -0.9459052
-0.22143222 0.10192455 0.216438 -0.06969667 0.0063092113 0.13853931 -2.0189643 -0.07904037
-0.29624075 -0.019270828 -0.6495975 -0.20261535 -0.5734466 0.41413552 0.31526878 -0.05469011
0.085465424 -0.20885167 -0.066299744 -0.031676754 0.84361756 0.06259396 0.4543873 -0.23469758
-1.0720054 0.043195575 0.50534743 -0.24224812 0.037773926 0.08599353 -0.5577367 -0.14849369
-0.40602404 0.08949533 0.4220905 -0.7471452 0.0074269045 -0.4630643 0.54139924 0.17250553
-0.05012997 -0.5032566 0.29297134 0.24137257 0.5870378 -0.54388994 0.005565426 -0.97789586
-1.112419 -0.19237585 0.30323246 0.02957862 0.34298733 -0.76305884 -0.4617141 -0.25985298
-0.044447143 0.15339 0.23017372 -0.12038064 0.051663082 0.0340257 -0.13642938 -0.3186161
0.6223216 0.004578665 -1.0814108 0.35455722 0.11591075 -1.1630689 0.39201945 0.7189687
0.40454355 0.057756208 -0.07444151 -1.9677719 -0.09240352 -0.15270586 0.13211523 -1.4220363
-0.54938865 0.2582452 -0.80934656 0.12059764 -0.15279202 0.014634906 -0.03369931 -0.2285195
-0.0030133147 -0.08482426 -1.0899725 0.5706867 0.32138672 -0.13019894 0.046176627 0.16682982
-0.43886587 0.18602827 0.6121818 0.40562072 -0.048643082 0.68872404 -0.45270565 0.33660087
-0.08844865 -0.5763023 0.6892754 0.50397325 -1.4826119 0.15377992 -1.5501194 -0.02390644
-0.2058832 -0.24065025 0.55175465 0.09435766 -1.260576 0.16587362 0.5860562 -0.14880852
-0.69506973 0.19717571 -0.44325602 -0.548539 0.5927141 0.1462055 0.11608408 0.2720473
0.49080724 0.0056175906 0.50318795 -0.9804173 -0.22316152 -0.52549976 0.04373114 0.036611423
-0.21367815 0.38001204 0.45043954 -0.7340171 -0.31299752 0.6869059 -0.27454653 0.43041676
0.58399487 0.14864089 -0.4756251 -0.07405173 -0.063619114 0.16608301 -0.18777405 -0.35268748
00000000: 5de4 f13e 00c8 553c d507 81be bc76 893f
00000010: 2320 dcbf 73f6 21be f825 b7bf 9aa4 d43e
00000020: 23ca 6f3d 9e43 eebd ac97 7e3c 1e54 1d3e
00000030: 721c d1bd af59 c6bc 1431 6b3e 5548 5f3e
00000040: 1058 9fbf 96c5 4dbf a415 a1bf 9972 173f
00000050: c6de b43e a262 3a3e 9a93 fdbe a93f 87bf
00000060: 3f18 79bd 4dc2 c3bf 206c dabe 5305 23be
00000070: 97a4 b1bd d6b5 98bf bfdb 8fbf c775 e3bf
00000080: 6760 32bf 6343 403e 3ad6 373f 9fdc 66bf
00000090: 8757 e1be 7011 0e3d e94d a4be 3dd5 d3bf
000000a0: 2fc9 cd3e b982 8fbd 7459 443e f1a1 f53e
000000b0: 78a8 d5bd ee87 123f 017d 973e 5a7e 72bf
000000c0: f31f 8cbe 747b 8c3e a9bd 36bf 17da 4a3f
000000d0: acc4 6dbd a8f5 cdbe e877 bb3e 5443 403f
000000e0: 1fb6 ab3e d7e2 86be 653e abbe 3522 89bd
000000f0: fe0e ba3f d6f9 19bf fafa 143f 142e 7ebf
00000100: a6b3 933d 4430 463b b7a3 0dbf 229a 02bf
00000110: a641 d93e f700 313e 129f d3bd a013 253e
00000120: 5980 52bf 718c 86bc 8a32 c53d 191d 24bf
00000130: 0018 85b9 4930 5fbd 6e8e c8be 933c f73e
00000140: 6030 eb3e 5297 54be 026c e13e c8c1 afbe
00000150: 2e45 d33e 4223 83bf 816e d5bd 576c 29be
00000160: ccd0 0d3e 356a 993e f89e 98bb f41e 6c3e
00000170: 1677 b1bf aab6 0fbe af7e 49bf bf77 ae3e
00000180: bddc 5abd 1076 fd3c cd27 f2be b2aa 69bf
00000190: 8072 42bf ac4c 2ebd c584 943e d826 72bf
000001a0: 21bf 62be d2bd d03d eca1 5d3e 21bd 8ebd
000001b0: 80bd ce3b 40dd 0d3e b636 01c0 ebdf a1bd
000001c0: deac 97be dbdd 9dbc 064c 26bf 667a 4fbe
000001d0: 65cd 12bf 9209 d43e e96a a13e bd02 60bd
000001e0: 7f08 af3d 36dd 55be 29c8 87bd 7cbf 01bd
000001f0: 52f7 573f 4331 803d 74a5 e83e 9054 70be
00000200: 7937 89bf d8ed 303d 735e 013f e40f 78be
00000210: d5b8 1a3d 601d b03d d5c7 0ebf bb0e 18be
00000220: 62e2 cfbe 5449 b73d 3f1c d83e e844 3fbf
00000230: 645d f33b c416 edbe 2499 0a3f 4aa5 303e
00000240: 1555 4dbd 6dd5 00bf 5700 963e 5f2a 773e
00000250: 1c48 163f 5f3c 0bbf 2d5e b63b 6257 7abf
00000260: bf63 8ebf 2dfe 44be 4941 9b3e dd4e f23c
00000270: 099c af3e d357 43bf ca65 ecbe 730b 85be
00000280: 350e 36bd 4512 1d3e a9b2 6b3e 208a f6bd
00000290: ab9c 533d 885e 0b3d 25b4 0bbe a621 a3be
000002a0: 7850 1f3f a008 963b ab6b 8abf 8688 b53e
000002b0: 9e62 ed3d 71df 94bf c6b6 c83e 550e 383f
000002c0: 5520 cf3e c691 6c3d ca74 98bd f3df fbbf
000002d0: 0f3e bdbd ed5e 1cbe 3749 073e 4905 b6bf
000002e0: bca4 0cbf b738 843e 5631 4fbf e5fb f63d
000002f0: 8375 1cbe 3fc7 6f3c 4a08 0abd 0401 6abe
00000300: 087b 45bb 57b8 adbd 3884 8bbf 8618 123f
00000310: cd8c a43e df52 05be b423 3d3d 70d5 2a3e
00000320: 07b3 e0be 327e 3e3e f2b7 1c3f 85ad cf3e
00000330: f83d 47bd 3850 303f 09c9 e7be f356 ac3e
00000340: 9124 b5bd 8c88 13bf 5a74 303f 6404 013f
00000350: 3ac6 bdbf 7c78 1d3e 506a c6bf 70d7 c3bc
00000360: 0cd3 52be 056d 76be cb3f 0d3f 973e c13d
00000370: 8e5a a1bf c6da 293e c707 163f 4361 18be
00000380: 17f0 31bf 6ee8 493e 74f2 e2be 0d6d 0cbf
00000390: 1cbc 173f e5b6 153e 7dbd ed3d c949 8b3e
000003a0: 164b fb3e c413 b83b edd0 003f a1fc 7abf
000003b0: 7484 64be 2787 06bf 6d1f 333d dcf5 153d
000003c0: 72ce 5abe f090 c23e 03a0 e63e 8be8 3bbf
000003d0: 3641 a0be 11d9 2f3f 5d91 8cbe 965f dc3e
000003e0: b080 153f 5135 183e 2285 f3be 6fa8 97bd
000003f0: bd4a 82bd aa11 2a3e d747 40be 7493 b4be

Model.3.bias f4 [16]
0.673931 -0.020305708 -0.48696354 0.6268206 0.7408747 0.71459544 -0.21501546 -1.8423597
0.46404958 -1.3944151 0.76194406 -0.05133052 -0.6081513 1.9663924 1.9923202 -0.66407424
00000000: be86 2c3f 2858 a6bc 4953 f9be 5177 203f
00000010: f7a9 3d3f baef 363f 032d 5cbe 71d2 ebbf
00000020: e897 ed3e 327c b2bf c40e 433f f43f 52bd
00000030: ceaf 1bbf bfb2 fb3f 5904 ff3f c500 2abf

Model.5.weight f4 [10, 16]
-0.07846626 -0.13901983 0.030656688 0.17172056 -0.17360528 0.07589548 -0.69624346 -0.183868
0.33368945 0.017586937 0.18891841 -0.012013764 -0.4323171 -0.011576245 -0.19196847 -0.4132785
-0.12831253 -0.04003815 0.1710585 -0.5314588 -0.22631963 -0.23636611 0.062295962 -0.08776463
-0.59460956 -0.048754387 0.36614445 0.0036667597 0.48489594 -0.16506927 0.124625504 0.421767
-0.054581407 -0.47312334 0.32370174 -0.10708389 0.22863346 0.1640553 -0.15473612 -0.097385444
-0.29354703 0.3698284 -0.009244982 -0.02746318 0.048066095 -0.16618243 -0.05825385 0.011102919
-0.63810104 0.010098373 -0.12358423 0.05106268 -0.27918673 0.106954165 0.1293695 0.47472647
-0.26054716 0.024041355 -0.21904066 -0.2512853 0.19822018 0.05101833 -0.10645231 -0.35912487
0.409721 -0.03969126 -0.07701472 -0.44744343 0.26890475 -0.19145533 -0.11089805 -0.33629727
-0.33295986 -0.22191574 0.11989286 -0.16020045 0.037432346 0.21102847 0.1296874 0.22025977
-0.14811614 0.56000715 -0.07300157 0.2720499 -0.24013713 0.030943783 -0.31778803 0.09999167
-0.35534862 -0.15217866 -0.05612438 0.17229377 0.1318976 0.17693648 -0.28776908 -0.39936116
0.24570613 0.3105986 -0.24314147 -0.13301757 0.19334929 0.20896725 -1.128053 -0.29267594
0.1059407 -0.06731638 0.46865252 -0.34278405 -0.20281719 -0.30414495 -0.30866826 -0.3803199
-0.07021286 -0.27171955 -0.16165633 -0.15870327 -0.11764449 -0.08640837 0.40370977 -0.10442648
-0.17049298 0.23875768 -0.2640781 -0.15905154 -0.07300904 0.015975479 -0.17608319 0.16080233
-0.45522827 -0.00068840286 -0.11073934 0.21357355 -0.2770691 0.42563614 -0.26695693 -0.0018832375
-0.16665125 -0.37750378 0.24664158 -0.26226985 0.11112447 -0.26562786 0.30800733 -0.1758694
-0.25946394 0.01703079 -0.48983496 0.023330169 -0.07600965 -0.35860962 0.11617732 -0.051645406
0.0043871934 -0.29167667 -0.41825083 -0.10476481 -0.05003537 0.5283221 0.14260454 0.14485933
00000000: ebb2 a0bd 375b 0ebe bc23 fb3c 84d7 2f3e
00000010: 95c5 31be 176f 9b3d 033d 32bf e547 3cbe
00000020: 58d9 aa3e 7b12 903c d473 413e 61d5 44bc
00000030: ab58 ddbe 4aaa 3dbc 6293 44be 3d99 d3be
00000040: 5c64 03be 0bff 23bd f629 2f3e af0d 08bf
00000050: 55c0 67be f509 72be 0d2a 7f3d f1bd b3bd
00000060: 5538 18bf aeb2 47bd 4977 bb3e 054e 703b
00000070: 4844 f83e eb07 29be a83b ff3d d8f1 d73e
00000080: c190 5fbd 393d f2be 3cbc a53e cc4e dbbd
00000090: e41e 6a3e 1dfe 273e 2573 1ebe 0572 c7bd
000000a0: cc4b 96be 265a bd3e 4478 17bc 76fa e0bc
000000b0: f4e0 443d ba2b 2abe 979b 6ebd 04e9 353c
000000c0: 975a 23bf a573 253c bb19 fdbd 1a27 513d
000000d0: 90f1 8ebe c90a db3d 7079 043e 590f f33e
000000e0: 7066 85be 60f2 c43c 324c 60be 78a8 80be
000000f0: 3bfa 4a3e 99f8 503d ab03 dabd 37df b7be
00000100: f3c6 d13e 4d93 22bd e5b9 9dbd 4e17 e5be
00000110: e2ad 893e de0c 44be 841e e3bd 282f acbe
00000120: b779 aabe e13d 63be 638a f53d 960b 24be
00000130: a952 193d d917 583e c6cc 043e c78b 613e
00000140: c2ab 17be a15c 0f3f d981 95bd 204a 8b3e
00000150: 82e6 75be d17d fd3c 1db5 a2be 6fc8 cc3d
00000160: 41f0 b5be b9d4 1bbe aee2 65bd c76d 303e
00000170: 2a10 073e d62e 353e 7856 93be 1179 ccbe
00000180: 639a 7b3e c806 9f3e 14fa 78be c235 08be
00000190: 5bfd 453e 83fb 553e 0a64 90bf 9fd9 95be
000001a0: 70f7 d83d 2cdd 89bd 39f3 ef3e 6481 afbe
000001b0: 4faf 4fbe e3b8 9bbe c409 9ebe 4ab9 c2be
000001c0: c3cb 8fbd d31e 8bbe 3d89 25be 1c83 22be
000001d0: 98ef f0bd dff6 b0bd 0cb3 ce3e 8ddd d5bd
000001e0: b695 2ebe e57c 743e 3f35 87be 68de 22be
000001f0: c385 95bd 02df 823c 274f 34be 5ea9 243e
00000200: ae13 e9be ef75 34ba 4fcb e2bd 06b3 5a3e
00000210: 00dc 8dbe fbec d93e 94ae 88be f7d6 f6ba
00000220: a0a6 2abe 2d48 c1be 9c8f 7c3e 3c48 86be
00000230: 3a95 e33d 6000 88be 23b3 9d3e 1c17 34be
00000240: 75d8 84be 2884 8b3c a6cb fabe e91e bf3c
00000250: f3aa 9bbd ae9b b7be 60ee ed3d 228a 53bd
00000260: 72c2 8f3b a556 95be f924 d6be ef8e d6bd
00000270: e3f1 4cbd 1e40 073f ed06 123e 0156 143e

Model.5.bias f4 [10]
-0.281867 -0.6862029 -0.26137403 -0.32219154 0.5817494 0.24075362 -1.2969068 0.004545599
0.67632556 0.24565345
00000000: df50 90be feaa 2fbf d1d2 85be 4af6 a4be
00000010: 87ed 143f 1e88 763e 0b01 a6bf 40f3 943b
00000020: ac23 2d3f 948c 7b3e

exp_avg f4 [32, 784]
0.0 0.0 0.0 0.0 0.0 0.0 0.0 0.0
0.0 0.0 0.0 0.0 0.0 0.0 0.0 0.0
0.0 0.0 0.0 0.0 0.0 0.0 0.0 0.0
0.0 0.0 0.0 0.0 0.0 0.0 0.0 0.0
6e-45 6e-45 6e-45 2.218761e-31 1.1754717e-30 6.797903e-31 6e-45 6e-45
1.100777e-12 5.9488846e-12 4.5202483e-12 3.1473337e-13 2.759079e-12 7.9781803e-13 1.879332e-27 3.1908258e-27
1.5778095e-19 2.1085272e-18 2.6392444e-18 2.1515573e-19 0.0 0.0 0.0 0.0
0.0 0.0 0.0 6.0796013e-37 2.0964142e-37 -6e-45 6.4262427e-28 7.6255235e-12
3.7825017e-12 4.2792479e-13 6.1241196e-20 8.431678e-13 4.168937e-12 4.4031515e-12 3.9820954e-13 1.636084e-12
5.861233e-11 6.4212075e-10 3.4581932e-10 2.496031e-11 4.8502044e-12 1.3775676e-15 2.2537252e-16 1.2479031e-18
6e-45 6e-45 0.0 0.0 0.0 0.0 6e-45 1.2356818e-25
3.1997092e-11 2.9639426e-11 7.845644e-22 6.730487e-07 2.8968948e-08 5.0860063e-08 1.1110455e-07 4.966789e-06
1.1756133e-05 5.097135e-06 7.058855e-07 5.363552e-06 2.7862534e-05 3.3990298e-05 1.9313107e-05 3.3610563e-06
-2.039697e-06 -4.51197e-06 -1.4156265e-06 1.0468723e-07 1.3488693e-12 3.913834e-32 7.175369e-32 0.0
0.0 6e-45 2.5993608e-26 1.4822601e-25 3.5048295e-10 2.682511e-09 4.5416937e-06 1.3344139e-05
1.06894595e-05 1.6052057e-06 -9.930366e-06 3.210423e-05 5.1366533e-05 5.7874397e-05 7.320668e-05 6.393456e-05
5.5523255e-05 2.612525e-06 -7.14346e-05 -6.7373156e-05 1.4670611e-05 2.3129505e-05 1.3395007e-05 1.681025e-05
1.7110393e-05 -1.5379078e-07 6.944623e-15 1.585103e-27 0.0 0.0 8.664535e-27 3.8082027e-16
-9.145388e-09 9.3147213e-07 1.192046e-05 1.3177814e-05 8.189157e-06 -3.6546204e-05 -7.352162e-05 -0.00010597097
-8.497809e-05 -0.00011030832 2.4921044e-05 -0.00010964383 -9.63707e-05 0.0002036052 0.00024080102 6.95884e-05
8.285813e-06 7.418835e-05 6.3768224e-05 3.4122542e-05 1.8558734e-05 -1.0409256e-07 1.9366404e-08 -7.317506e-15
0.0 6e-45 1.6319793e-11 5.812828e-08 -9.681392e-08 1.1501297e-05 -1.2746797e-05 -5.659059e-05
4.5711928e-05 -6.524798e-05 -3.7263508e-05 4.7228074e-05 3.1509917e-05 0.00044421697 0.00026382972 0.00024034914
0.00032248435 0.0007018284 0.00094300834 0.0007303402 0.00029501278 0.0005045683 0.00022678846 3.211419e-05
3.4829013e-06 -2.3679018e-08 3.4742662e-08 4.9472514e-19 -5.7332708e-30 -1.862833e-14 8.9191815e-08 3.065467e-07
-4.5536253e-06 -3.6119785e-05 -5.1781008e-05 -2.2998067e-05 0.00039231582 0.00027293767 0.0005862798 0.00026060946
0.0003568403 0.0006349847 0.0007230774 0.0008998144 0.0010705725 0.0009822985 0.0012376361 0.0012850356
0.0010401802 0.00059106393 0.00012205419 -7.372904e-05 1.6348745e-06 -1.483602e-07 -3.6617234e-09 7.503543e-15
-2.3299038e-29 5.665609e-10 4.8103277e-07 9.028067e-07 -3.7643003e-06 -1.5811307e-05 1.45991835e-05 0.0003050114
0.0006293401 0.0008864306 0.0007482389 0.00043258586 0.0004614354 0.0007820151 0.0010443261 0.0013073102
0.0010558737 0.0011730546 0.0016610794 0.0016924567 0.0012838963 0.00057189725 0.00039345576 0.00015527023
1.3329703e-05 -4.5075e-09 7.857054e-09 -1.8349567e-15 7.526674e-20 2.6498241e-09 2.2716097e-08 3.3985052e-07
00000000: 0000 0000 0000 0000 0000 0000 0000 0000
00000010: 0000 0000 0000 0000 0000 0000 0000 0000
00000020: 0000 0000 0000 0000 0000 0000 0000 0000
00000030: 0000 0000 0000 0000 0000 0000 0000 0000
00000040: 0000 0000 0000 0000 0000 0000 0000 0000
00000050: 0000 0000 0000 0000 0000 0000 0000 0000
00000060: 0000 0000 0000 0000 0000 0000 0000 0000
00000070: 0000 0000 0000 0000 0000 0000 0000 0000
00000080: 0400 0000 0400 0000 0400 0000 7e01 900c
00000090: 2fbb be0d c59a 5c0d 0400 0000 0400 0000
000000a0: aceb 9a2b ca4e d12c c70a 9f2c dc2d b12a
000000b0: 2627 422c d990 602b 62e5 1413 a3cd 7c13
000000c0: 5e46 3a20 f494 1b22 ebbd 4222 d402 7e20
000000d0: 0000 0000 0000 0000 0000 0000 0000 0000
000000e0: 0000 0000 0000 0000 0000 0000 cce0 4e03
000000f0: b0ac 8e02 0400 0080 e0a7 4b12 4e26 062d
00000100: bf15 852c 76e6 f02a 089a 901f a554 6d2b
00000110: 72ae 922c 10ec 9a2c 0b2c e02a 2342 e62b
00000120: cfe3 802e 3b81 3030 be1d be2f 9f8d db2d
00000130: c2a6 aa2c 4687 c626 1deb 8125 7228 b821
00000140: 0400 0000 0400 0000 0000 0000 0000 0000
00000150: 0000 0000 0000 0000 0400 0000 52f8 1816
00000160: 86b9 0c2e 075b 022e bb1e 6d1c 8eab 3435
00000170: 64d7 f832 3b71 5a33 5f98 ee33 65a8 a636
00000180: 353c 4537 0e08 ab36 157c 3d35 90f8 b336
00000190: 56ba e937 ce90 0e38 9502 a237 828e 6136
000001a0: bae1 08b6 8765 97b6 8e00 beb5 6ad0 e033
000001b0: 23d6 bd2b c737 4b0b 8248 ba0b 0000 0000
000001c0: 0000 0000 0400 0000 d0b6 0015 b37e 3716
000001d0: 17ae c02f 3c57 3831 da64 9836 a4e0 5f37
000001e0: e156 3337 7372 d735 999a 26b7 a8a7 0638
000001f0: 6572 5738 29be 7238 8986 9938 9b14 8638
00000200: a4e1 6838 d652 2f36 29cf 95b8 b04a 8db8
00000210: cb21 7637 3c06 c237 1ebb 6037 bd03 8d37
00000220: 4a88 8f37 b021 25b4 d734 fa27 6b2b fb12
00000230: 0000 0000 0000 0000 699e 2b14 2787 db25
00000240: d71d 1db2 470a 7a35 fcfd 4737 4816 5d37
00000250: 2964 0937 3049 19b8 9f2f 9ab8 bb3c deb8
00000260: 4436 b2b8 5455 e7b8 890d d137 95f0 e5b8
00000270: a01a cab8 db7e 5539 887f 7c39 fdef 9138
00000280: 4c03 0b37 9195 9b38 4ebb 8538 cd1e 0f38
00000290: 94ae 9b37 7d89 dfb3 2c5b a632 0ad2 03a8
000002a0: 0000 0000 0400 0000 e88c 8f2d b8a8 7933
000002b0: 04e8 cfb3 b2f5 4037 14db 55b7 af5b 6db8
000002c0: cfba 3f38 bed5 88b8 634b 1cb8 c216 4638
000002d0: 8429 0438 cbe5 e839 a052 8a39 3b06 7c39
000002e0: 1e13 a939 e8fa 373a 3834 773a 4d74 3f3a
000002f0: f2ab 9a39 0145 043a 10ce 6d39 59b2 0638
00000300: cabb 6936 b666 cbb2 f637 1533 6004 1221
00000310: b091 e88e 01ca a7a8 b889 bf33 7593 a434
00000320: 58cb 98b6 537f 17b8 6f2f 59b8 f9eb c0b7
00000330: bdaf cd39 1319 8f39 92b0 193a 69a2 8839
00000340: 4b16 bb39 1a75 263a e78c 3d3a 86e1 6b3a
00000350: 7452 8c3a 78c0 803a 2d38 a23a a46e a83a
00000360: a856 883a a1f1 1a3a 58f7 ff38 fa9e 9ab8
00000370: dc6d db35 f14c 1fb4 b8a1 7bb1 fc2b 0728
00000380: c347 ec8f 2ebc 1b30 5220 0135 6758 7235
00000390: 309e 7cb6 86a2 84b7 04ef 7437 f0e9 9f39
000003a0: 4dfa 243a 5a5f 683a 7625 443a b1cc e239
000003b0: d0ec f139 2500 4d3a c5e1 883a 0d5a ab3a
000003c0: 3e65 8a3a 2ec1 993a 93b8 d93a 6cd5 dd3a
000003d0: 6948 a83a 60eb 153a bd48 ce39 09d0 2239
000003e0: a3a2 5f37 64e0 9ab1 b0fb 0632 fa38 04a7
000003f0: f4b7 b11f 3318 3631 3a21 c332 b374 b634

exp_avg_sq f4 [32, 784]
0.0 0.0 0.0 0.0 0.0 0.0 0.0 0.0
0.0 0.0 0.0 0.0 0.0 0.0 0.0 0.0
0.0 0.0 0.0 0.0 0.0 0.0 0.0 0.0
0.0 0.0 0.0 0.0 0.0 0.0 0.0 0.0
2.9789018e-19 3.0591941e-18 4.683785e-13 2.49272e-12 1.4839486e-11 6.8596235e-13 2.4221638e-13 1.4423708e-13
1.34159e-12 1.6603192e-12 7.180294e-13 3.0817154e-10 2.288541e-09 5.175886e-10 4.3101607e-14 3.188334e-13
2.614101e-13 1.2241269e-12 1.5139733e-12 2.45841e-13 0.0 0.0 0.0 0.0
0.0 0.0 0.0 2.4930743e-12 2.9668222e-13 2.6827266e-17 1.0712021e-13 4.684467e-12
1.6769872e-11 6.107293e-12 6.2786644e-11 8.290681e-11 1.0952492e-10 1.80642e-11 1.6718618e-10 9.312401e-11
4.720307e-10 1.1080723e-09 7.0441617e-09 4.5575912e-10 1.5607825e-10 4.590578e-11 6.9752047e-12 3.07466e-12
3.5298025e-12 1.1629877e-12 0.0 0.0 0.0 0.0 7.1909455e-16 3.50337e-11
7.1612644e-10 6.128734e-10 5.401234e-10 1.3407688e-09 1.4610657e-08 5.854081e-08 5.83487e-08 3.3439346e-08
6.6268484e-08 8.060833e-08 4.1207063e-08 1.02855616e-07 1.250112e-07 3.289667e-07 2.864342e-07 2.7303236e-07
2.449289e-07 5.878791e-08 2.6506886e-08 9.345862e-09 1.8931248e-08 9.587088e-10 1.0112168e-09 0.0
0.0 7.852057e-23 2.372883e-14 6.687805e-11 2.1354913e-09 4.8107376e-09 9.100374e-09 4.075653e-08
7.212772e-08 1.9235092e-07 3.752609e-07 7.2716153e-07 1.0512864e-06 1.2645306e-06 1.6520169e-06 1.6662432e-06
1.7150363e-06 1.5920976e-06 1.2154406e-06 1.0147324e-06 7.9849025e-07 4.1384882e-07 3.956889e-07 3.0936656e-07
1.0954208e-07 1.8959703e-08 4.0016584e-10 2.5790195e-12 0.0 0.0 1.8438215e-15 1.4537983e-10
6.0136167e-09 4.5510014e-08 1.2782195e-07 1.6755872e-07 4.0863566e-07 1.1208305e-06 1.8482399e-06 2.7793012e-06
3.7665545e-06 4.859461e-06 6.1137825e-06 6.084619e-06 5.76917e-06 4.833815e-06 3.6495298e-06 2.5257561e-06
1.7440409e-06 1.0862343e-06 8.1493624e-07 5.7109764e-07 2.3905994e-07 2.8211288e-08 5.945177e-09 5.827912e-12
0.0 7.9678124e-16 6.0080096e-10 1.6142384e-09 1.4663e-08 1.172704e-07 3.0246986e-07 6.0171425e-07
1.2876787e-06 2.7969888e-06 4.044587e-06 5.2721684e-06 7.111567e-06 8.886254e-06 1.0004833e-05 9.874485e-06
1.06059415e-05 9.215511e-06 7.2408757e-06 4.753476e-06 3.310588e-06 1.9967572e-06 1.3385634e-06 1.0029352e-06
5.604276e-07 9.425135e-08 2.7382233e-08 7.725798e-11 6.266417e-21 5.2031057e-12 1.736514e-09 3.267965e-09
4.6601155e-08 2.710174e-07 6.601171e-07 1.4280005e-06 2.7545364e-06 4.651404e-06 5.896542e-06 8.243833e-06
9.98704e-06 1.1017308e-05 1.2194405e-05 1.2532362e-05 1.3000152e-05 1.2062263e-05 9.794234e-06 6.719552e-06
4.2634974e-06 2.6774337e-06 1.85129e-06 1.2595801e-06 6.887919e-07 2.2241136e-07 2.3278067e-08 8.2225414e-11
3.608918e-10 6.9463025e-12 1.1429787e-09 5.969773e-09 1.07341634e-07 5.0038676e-07 1.1103858e-06 2.189996e-06
4.0830046e-06 5.9970716e-06 7.787196e-06 9.908381e-06 1.0069057e-05 1.069796e-05 1.1610791e-05 1.2186541e-05
1.1982527e-05 1.1479241e-05 9.952781e-06 7.444692e-06 5.1496518e-06 3.2070968e-06 1.9940271e-06 1.166838e-06
6.3078744e-07 1.3086543e-07 2.1938975e-08 5.963238e-12 1.6623535e-14 3.3908956e-11 6.37833e-10 1.8859266e-08
00000000: 0000 0000 0000 0000 0000 0000 0000 0000
00000010: 0000 0000 0000 0000 0000 0000 0000 0000
00000020: 0000 0000 0000 0000 0000 0000 0000 0000
00000030: 0000 0000 0000 0000 0000 0000 0000 0000
00000040: 0000 0000 0000 0000 0000 0000 0000 0000
00000050: 0000 0000 0000 0000 0000 0000 0000 0000
00000060: 0000 0000 0000 0000 0000 0000 0000 0000
00000070: 0000 0000 0000 0000 0000 0000 0000 0000
00000080: e4d7 af20 8bba 6122 3ad6 032b da68 2f2c
00000090: 8d87 822d cc14 412b 0f5b 882a 8265 222a
000000a0: e0cf bc2b 4eab e92b 791b 4a2b 4a6b a92f
000000b0: 7044 1d31 0f46 0e30 c51c 4229 bc7c b32a
000000c0: 2a29 932a d247 ac2b a312 d52b 6c65 8a2a
000000d0: 0000 0000 0000 0000 0000 0000 0000 0000
000000e0: 0000 0000 0000 0000 0000 0000 3c6f 2f2c
000000f0: 6a04 a72a 1770 f723 9936 f129 edd1 a42c
00000100: 6582 932d 9be1 d62c bd11 8a2e 6350 b62e
00000110: 0cd9 f02e f6e4 9e2d bad2 372f 28c8 cc2e
00000120: 35c0 0130 d44a 9830 1a09 f231 658e fa2f
00000130: 1f9c 2b2f 50e5 492e 0f6b f52c 275c 582c
00000140: 4563 782c 0cad a32b 0000 0000 0000 0000
00000150: 0000 0000 0000 0000 d043 4f26 7114 1a2e
00000160: ebd8 4430 2277 2830 ce77 1430 1c46 b830
00000170: 5902 7b32 4d6e 7b33 139b 7a33 f39e 0f33
00000180: 7c4f 8e33 e61a ad33 a5fb 3033 79e1 dc33
00000190: d13a 0634 d79c b034 37c7 9934 4895 9234
000001a0: c67e 8334 fe7d 7c33 42b1 e332 898f 2032
000001b0: 419e a232 91c3 8330 07fb 8a30 0000 0000
000001c0: 0000 0000 e1d9 bd1a f5ba d528 ff10 932e
000001d0: f6bf 1231 b24b a531 de57 1c32 470c 2f33
000001e0: a2e4 9a33 0589 4e34 7777 c934 2932 4335
000001f0: ed19 8d35 f1b8 a935 deba dd35 aea3 df35
00000200: 3330 e635 0fb0 d535 3922 a335 f131 8835
00000210: d557 5635 f32e de34 116f d434 0417 a634
00000220: 653d eb33 d4dc a232 56fe db2f 7c7b 352c
00000230: 0000 0000 0000 0000 81dc 0427 c9d8 1f2f
00000240: 55a0 ce31 ca76 4333 6e3f 0934 31ea 3334
00000250: 7562 db34 716f 9635 0a11 f835 0884 3a36
00000260: eac4 7c36 740e a336 fe24 cd36 7b2a cc36
00000270: cb94 c136 2832 a236 72ea 7436 2980 2936
00000280: ca14 ea35 baca 9135 fec1 5a35 884d 1935
00000290: 2658 8034 4755 f232 5446 cc31 2a0d cd2c
000002a0: 0000 0000 14a8 6526 9c25 2530 f7db dd30
000002b0: 8ee8 7b32 16d6 fb33 2463 a234 7d85 2135
000002c0: 4ed4 ac35 e7b3 3b36 bdb6 8736 95e7 b036
000002d0: e59f ee36 2c16 1537 6eda 2737 97aa 2537
000002e0: 2cf0 3137 529c 1a37 a6f6 f236 0c80 9f36
000002f0: 782b 5e36 0700 0636 b0a8 b335 979c 8635
00000300: 4b70 1635 3a67 ca33 2b36 eb32 60e4 a92e
00000310: 11bd ec1d 6911 b72c 28aa ee30 a692 6031
00000320: 8326 4833 5980 9134 e732 3135 b9a9 bf35
00000330: 93da 3836 4213 9c36 e9da c536 fe4e 0a37
00000340: 038e 2737 fad6 3837 9296 4c37 1642 5237
00000350: 3a1b 5a37 065f 4a37 ea51 2437 8378 e136
00000360: 2a0f 8f36 f6ad 3336 d779 f835 d80e a935
00000370: 6be5 3835 f8cf 6e34 03f5 c732 cbd0 b42e
00000380: 0167 c62f bb66 f42c fd16 9d30 ae1e cd31
00000390: b083 e633 5152 0635 9108 9535 d8f7 1236
000003a0: be00 8936 743a c936 c1a5 0237 2c3c 2637
000003b0: 45ee 2837 637b 3337 f8cb 4237 cc74 4c37
000003c0: 9008 4937 f796 4037 defa 2637 6bcd f936
000003d0: 2ccb ac36 8139 5736 20d1 0536 409c 9c35
000003e0: 6253 2935 0484 0c34 5174 bc32 13d0 d12c
000003f0: 43bb 9528 1722 152e 8253 2f30 f7ff a132

exp_avg f4 [32]
0.0012518852 6e-45 -0.00022744284 -0.0007231575 -0.00017364706 6e-45 0.00061396894 0.001512308
0.0010390659 6e-45 -0.0023830105 -0.0005263723 6e-45 -0.00073649007 0.0005355373 0.0008421169
0.002789075 -0.00152313 0.00077857065 0.00028346872 -0.001172805 -0.0012552647 -0.001196422 0.00015222041
0.0018094188 -0.00032059278 -0.00026179416 6e-45 -0.0014176222 0.00097277865 -0.00018804106 -0.00059611653
00000000: 4c16 a43a 0400 0000 b97d 6eb9 4792 3dba
00000010: 0715 36b9 0400 0000 c2f2 203a a338 c63a
00000020: 4431 883a 0400 0000 482c 1cbb 3ffc 09ba
00000030: 0400 0000 0311 41ba 4d63 0c3a 82c1 5c3a
00000040: eac8 363b c3a3 c7ba fe18 4c3a 879e 9439
00000050: ceb8 99ba b287 a4ba 43d1 9cba 5b9d 1f39
00000060: 052a ed3a 3c15 a8b9 6b41 89b9 0400 0000
00000070: 82cf b9ba 1202 7f3a e32c 45b9 b444 1cba

exp_avg_sq f4 [32]
2.8350152e-05 6.815366e-12 1.4242316e-05 3.8175964e-05 3.3602508e-05 1.2742077e-12 2.0911995e-05 3.1466603e-05
1.76051e-05 1.8033079e-11 2.108587e-05 1.1548802e-05 3.8196513e-13 1.9720721e-05 2.0748756e-05 2.2744942e-05
3.7820035e-05 1.7802264e-05 2.4788482e-05 1.683984e-05 2.2282393e-05 2.8536364e-05 2.5722333e-05 3.581315e-05
2.7053848e-05 1.0400687e-05 2.3768578e-05 7.604933e-13 1.716955e-05 3.3379867e-05 7.0895753e-06 1.5609101e-05
00000000: 7dd1 ed37 5ccb ef2c 48f2 6e37 211f 2038
00000010: 6bf0 0c38 2c54 b32b 2b6c af37 02fb 0338
00000020: aaae 9337 e29e 9e2d 90e1 b037 bac1 4137
00000030: fa06 d72a ed6d a537 9d0d ae37 64cc be37
00000040: f4a0 1e38 1256 9537 dcf0 cf37 4843 8d37
00000050: 13eb ba37 6061 ef37 4ac6 d737 1436 1638
00000060: b2f1 e237 9c7e 2e37 a262 c737 510f 562b
00000070: 5407 9037 5c01 0c38 fde2 ed36 4af0 8237

exp_avg f4 [16, 32]
0.0050932555 0.0 -0.0034759473 -0.0034361072 0.00030105014 0.0 0.00027547477 -0.0008639983
-0.0019225735 0.0 -0.0001262115 0.002084228 0.0 3.0313564e-05 0.00021319452 0.00030836088
-0.00029724825 -7.780652e-05 -0.00010084039 -0.0006788807 -0.00057808025 0.0017166415 -0.0018403496 0.00012826352
-4.504786e-05 3.928586e-06 -0.00022702597 0.0 -4.2735437e-06 -0.0023543471 0.0015713274 -0.00023194334
-0.0030721452 -6e-45 0.0022296554 0.00077360077 -2.3344119e-05 6e-45 -0.00880588 -1.5014015e-05
-0.009983955 6e-45 -0.013571903 -0.00013810715 6e-45 -0.003101548 -6.76163e-05 -0.0004958432
-0.0010565277 -0.0035222615 -0.0001115073 -0.0010465691 -0.0015245705 -0.00072605826 -0.009529563 -0.0012992953
-0.0028284362 -0.0001402479 -1.1225746e-05 6e-45 -0.0026102944 -0.008795773 -0.0013291666 0.00079962204
-0.0023667368 -6e-45 -0.00017942162 7.113631e-05 -0.00010129437 -6e-45 0.0008207545 -0.0036095819
-0.0032993488 -6e-45 -0.0040173694 0.00016662678 0.0 0.00028531483 0.00016855692 0.005734222
-0.0044845873 0.001734167 -0.0027569954 0.00068671996 -0.0025512998 0.0013621291 -0.0033102226 -0.000108165616
-0.00030265702 -0.0022856435 0.0015274337 -6e-45 0.0001661598 -0.0012690951 -1.3029354e-07 -0.0008014745
-0.003913511 0.0 -0.0017145821 0.00020115066 -0.0002354079 0.0 -0.00052809704 0.00031669892
-0.0069444776 0.0 -0.0055433256 0.0002931727 0.0 -0.0019200606 -0.00045582623 0.0008955813
-4.5181456e-05 0.0012957649 -9.51645e-06 0.001416143 -2.452015e-05 0.00039931558 -0.005971122 -0.00057474914
6.0564635e-05 7.390602e-06 0.000957093 0.0 0.0007111372 -0.0045363195 -0.0020418996 -0.001045837
-0.00017519383 -6e-45 -0.0048455093 0.0015137845 0.0009304086 -6e-45 0.0017507646 -5.732142e-05
0.0064724106 -6e-45 -0.00429755 -0.00020717994 -6e-45 6.786072e-05 0.0013650539 0.010882685
0.00024459924 0.0055963127 0.009071213 0.0015637362 0.0017308609 0.0002326815 0.0056738937 -0.0010133126
0.00014955614 -2.0878218e-05 0.0022908498 6e-45 -2.0193313e-05 -0.0016132984 0.0003987326 -0.00031432253
0.013483019 -6e-45 -8.4889216e-05 0.0021677718 5.320202e-05 0.0 -0.0026844959 -0.011924236
0.01609305 0.0 0.0013766561 -0.0041365996 0.0 6.627564e-05 0.00052666006 -0.0038342613
-0.0106356405 -0.0033516146 0.0019715102 0.0006389625 0.0007506781 0.002504061 -0.006078195 0.0001883338
-0.00062411587 -0.0005419791 0.0030201362 -6e-45 -0.0009330221 0.011080051 -0.00021717884 0.00023582959
0.0043210043 6e-45 0.0004301962 0.0017029935 0.0002174253 6e-45 0.0044194483 0.00032818585
0.0014468291 -6e-45 -0.001984661 -0.00023845311 -6e-45 4.0178653e-05 0.005763715 -5.1613268e-05
0.0019610953 -2.3772402e-05 0.00012579422 1.4422335e-05 -0.0001583029 -0.0006180026 0.0006922344 -0.00049400184
-0.00043875058 -0.00013481603 0.0041573243 6e-45 8.253863e-06 0.0012096935 0.0028811614 0.0006845724
0.0010878085 -6e-45 -0.00016163453 0.00031184312 0.0012049299 -6e-45 -0.000494227 0.001298167
-0.00070665544 -6e-45 0.0009677 -0.00034852486 6e-45 -0.000435223 -0.0026820316 -0.0038493327
0.0015809212 -0.0008573818 -0.0096116755 -7.0127906e-05 -7.968741e-05 -0.00034024578 -0.004030199 0.00037089462
0.00039943127 0.0016764015 3.199374e-05 6e-45 -0.0012719764 0.0053652264 1.7532695e-05 -0.0014706393
00000000: 53e5 a63b 0000 0000 b8cc 63bb 5030 61bb
00000010: 44d6 9d39 0000 0000 996d 9039 f27d 62ba
00000020: ddfe fbba 0000 0000 a457 04b9 8b97 083b
00000030: 0000 0000 e249 fe37 f88c 5f39 7fab a139
00000040: fcd7 9bb9 0f2c a3b8 467a d3b8 eaf6 31ba
00000050: 4f8a 17ba ee00 e13a e337 f1ba 7a7e 0639
00000060: c5f1 3cb8 4cd2 8336 d20d 6eb9 0000 0000
00000070: 7665 8fb6 644b 1abb 00f5 cd3a d135 73b9
00000080: 0b56 49bb 0400 0080 691f 123b 78cb 4a3a
00000090: 1dd3 c3b7 0400 0000 8a46 10bc b4e4 7bb7
000000a0: be93 23bc 0400 0000 b05c 5ebc dbd0 10b9
000000b0: 0400 0000 5743 4bbb 3acd 8db8 79fb 01ba
000000c0: 307b 8aba bed5 66bb 07d9 e9b8 082d 89ba
000000d0: 19d4 c7ba f254 3eba e221 1cbc 1e4d aaba
000000e0: 495d 39bb 820f 13b9 3656 3cb7 0400 0000
000000f0: 7911 2bbb 251c 10bc 6e37 aeba ba9d 513a
00000100: 411b 1bbb 0400 0080 2023 3cb9 042f 9538
00000110: 006e d4b8 0400 0080 e727 573a bc8e 6cbb
00000120: e339 58bb 0400 0080 23a4 83bb 89b8 2e39
00000130: 0000 0000 4f96 9539 a7be 3039 24e6 bb3b
00000140: 72f3 92bb fd4c e33a b5ae 34bb ff04 343a
00000150: b533 27bb 7889 b23a 52f0 58bb f9d6 e2b8
00000160: f0ad 9eb9 bcca 15bb 2c34 c83a 0400 0080
00000170: 2f3b 2e39 c457 a6ba d1e6 0bb4 0b1a 52ba
00000180: e93c 80bb 0000 0000 d4bb e0ba f8eb 5239
00000190: d4d7 76b9 0000 0000 fe6f 0aba 9c0a a639
000001a0: 808e e3bb 0000 0000 c9a4 b5bb f9b4 9939
000001b0: 0000 0000 8baa fbba f6fb eeb9 72c5 6a3a
000001c0: 3881 3db8 a8d6 a93a d7a8 1fb7 e09d b93a
000001d0: 9fb0 cdb7 3b5b d139 67a9 c3bb c3aa 16ba
000001e0: c806 7e38 cafc f736 6de5 7a3a 0000 0000
000001f0: 9c6b 3a3a 68a5 94bb 64d1 05bb 7714 89ba
00000200: 3cb4 37b9 0400 0080 14c7 9ebb 2e6a c63a
00000210: aae6 733a 0400 0080 e979 e53a 686c 70b8
00000220: 8416 d43b 0400 0080 76d2 8cbb 713e 59b9
00000230: 0400 0080 7250 8e38 9ceb b23a 4a4d 323c
00000240: 8e3d 8039 4661 b73b 6d9f 143c 48f6 cc3a
00000250: 0ede e23a f7fb 7339 12ec b93b 21d1 84ba
00000260: 2cd2 1c39 a223 afb7 1522 163b 0400 0000
00000270: cf64 a9b7 5075 d3ba fc0c d139 a8cb a4b9
00000280: e1e7 5c3c 0400 0080 8d06 b2b8 2d11 0e3b
00000290: 3c25 5f38 0000 0000 5eee 2fbb df5d 43bc
000002a0: 92d5 833c 0000 0000 ea70 b43a 508c 87bb
000002b0: 0000 0000 77fd 8a38 8f0f 0a3a 3b48 7bbb
000002c0: 1c41 2ebc c3a6 5bbb 7434 013b 0c80 273a
000002d0: 28c9 443a 2c1b 243b 982b c7bb 787b 4539
000002e0: b59b 23ba 9a13 0eba 7aed 453b 0400 0080
000002f0: 0e96 74ba 1a89 353c 80ba 63b9 0649 7739
00000300: 3697 8d3b 0400 0000 f58b e139 fb36 df3a
00000310: a9fc 6339 0400 0000 05d1 903b 5c10 ac39
00000320: 87a3 bd3a 0400 0080 1611 02bb 4509 7ab9
00000330: 0400 0080 8085 2838 8cdd bc3b 537b 58b8
00000340: b885 003b d86a c7b7 a1e7 0339 75f7 7137
00000350: 1cfe 25b9 7401 22ba 1077 353a e77f 01ba
00000360: 1b08 e6b9 675d 0db9 2a3a 883b 0400 0000
00000370: 127a 0a37 948e 9e3a ded1 3c3b e074 333a
00000380: cc94 8e3a 0400 0080 707c 29b9 e07e a339
00000390: bdee 9d3a 0400 0080 038f 01ba 4227 aa3a
000003a0: d83e 39ba 0400 0080 3fad 7d3a 37ba b6b9
000003b0: 0400 0000 a42e e4b9 06c5 2fbb 1645 7cbb
000003c0: ea36 cf3a ebc1 60ba 4a7a 1dbc a211 93b8
000003d0: da1d a7b8 0463 b2b9 c20f 84bb a274 c239
000003e0: c26a d139 b3ba db3a 0431 0638 0400 0000
000003f0: 72b8 a6ba c8ce af3b 2d13 9337 77c2 c0ba

exp_avg_sq f4 [16, 32]
0.005471218 0.0 9.660008e-05 0.0009772044 2.7489414e-05 0.0 0.0001338151 0.0004761585
0.0010556732 0.0 0.0012670167 0.000611952 0.0 7.619843e-05 0.0003683327 0.00025606542
0.000111792964 6.465264e-05 2.9290764e-05 0.00016577748 0.0007862269 0.0021782033 0.0002579046 3.4061595e-05
7.00408e-05 1.5365218e-06 0.0007120356 0.0 3.537992e-05 0.00040292324 0.0001238503 9.341611e-06
0.00040410043 7.022096e-13 0.00057185435 9.286119e-05 6.187141e-05 1.3377875e-14 0.0010482657 0.00012836476
0.0021296558 6.767794e-13 0.00042028358 0.00028882007 3.4861354e-15 0.00012081108 0.00052766845 0.00026417262
0.00057775783 0.0009858338 8.098185e-05 0.00014392445 0.0007656923 0.0002119971 0.0018151042 0.0012476454
0.0013764973 0.00026815347 7.797478e-05 5.7646845e-13 0.00030548297 0.0003640886 0.00039955913 0.00015032414
0.00015124628 6.750698e-14 3.2788717e-05 2.1864043e-05 0.0003145798 1.7196675e-14 0.00031431523 0.0002813072
0.00010889741 1.0505546e-13 0.0001515482 4.9223938e-05 0.0 2.6703163e-05 0.00012908562 0.0004961643
0.001250093 0.0003391422 0.00034248037 1.9555528e-05 0.0011137218 0.0001780828 0.0007829356 6.9421156e-05
0.00022433992 0.0002666048 8.512152e-05 2.590301e-14 2.149583e-06 0.0004959019 7.2499535e-07 0.0005515463
0.0012358808 0.0 0.00022705036 5.782181e-05 4.746137e-05 0.0 0.0007548849 7.111217e-05
0.00048598478 0.0 0.00040944474 0.00031431598 0.0 0.00016337734 7.3464053e-06 0.0007372856
0.0006857705 0.00060979876 1.5719992e-05 0.00027539366 0.0001293378 0.000985676 0.0011738383 0.00029700692
0.0003648893 7.782684e-05 0.0001608384 0.0 0.00015642191 0.00052256783 8.223792e-05 0.00024606418
6.1918676e-05 2.298018e-15 0.00029455285 0.00016207149 0.00026554396 9.146667e-13 0.00040335834 0.00023634292
0.0001932354 1.6162076e-13 0.00032077546 1.9791958e-05 1.7870026e-15 4.1555646e-07 0.00057962246 0.00044637333
0.00053517084 0.0002519191 0.00042648768 2.1538775e-05 0.0012631131 0.00010805759 0.0007901858 8.433419e-06
5.8931633e-05 0.00012517792 0.00019305253 8.238657e-15 5.0877916e-05 0.00015974375 5.3399537e-05 0.00023788557
0.0012778218 5.2056158e-14 0.00013548731 0.00013533802 0.0002305672 0.0 0.00046648135 0.0004255245
0.0011644494 0.0 2.6579955e-05 0.00043494473 0.0 1.26302375e-05 0.00043135928 0.00068973476
0.001404585 0.00057623547 0.00017427932 2.9856004e-05 0.00054865004 0.00092818803 0.0015583273 5.9755104e-05
0.000105639425 0.00015219543 9.7076765e-05 4.3203942e-14 8.4073974e-05 0.00107395 7.698178e-05 0.00028467903
0.0014695654 7.60669e-14 2.0575792e-06 0.00048483582 0.00080573116 3.0004503e-15 0.0016981917 0.00014430338
0.00022822841 7.33605e-15 0.00073464407 0.0002160743 4.1935475e-15 0.00053248624 0.00019871582 0.00024576133
0.0015609445 7.988423e-05 0.0002762805 0.00012783856 0.00013853819 0.0010040244 0.00012706369 9.848945e-05
5.2560765e-05 0.00027760962 0.0009018123 2.3431373e-13 1.7453707e-06 0.0023892918 0.00027947844 0.00053873775
0.00049913087 1.5199685e-13 9.90069e-05 0.00013517907 0.00060494087 1.8963838e-13 0.0013755843 0.0005607929
0.001977186 4.4870398e-14 0.000481491 4.942481e-05 6.463706e-17 9.42338e-05 0.00018110484 0.00045757508
0.0010449921 0.0012645143 0.0007008055 1.520133e-05 0.0006634765 0.0011313672 0.0008398553 0.0009728653
0.0013268898 0.00046930736 0.000120379395 6.34947e-13 7.41006e-05 0.0015723034 1.5979502e-05 0.0005447787
00000000: e747 b33b 0000 0000 c695 ca38 8a15 803a
00000010: 1199 e637 0000 0000 b850 0c39 e9a4 f939
00000020: 845e 8a3a 0000 0000 0712 a63a 676b 203a
00000030: 0000 0000 b8cc 9f38 c71c c139 8540 8639
00000040: 6472 ea38 1f96 8738 70b5 f537 8ed4 2d39
00000050: cb1a 4e3a 30c0 0e3b 5f37 8739 5cdd 0e38
00000060: dee2 9238 7d3a ce35 e6a7 3a3a 0000 0000
00000070: e664 1438 713f d339 d0dd 0139 eab9 1c37
00000080: 71dd d339 89a7 452b 7fe8 153a 79be c238
00000090: f6c0 8138 8ffe 7028 f665 893a a799 0639
000000a0: b291 0b3b 187f 3e2b 8259 dc39 c66c 9739
000000b0: d933 7b27 f45b fd38 3b53 0a3a a680 8a39
000000c0: ac74 173a 1837 813a cdd4 a938 6dea 1639
000000d0: beb8 483a 8a4b 5e39 cae8 ed3a 0888 a33a
000000e0: 966b b43a f396 8c39 6486 a338 ee42 222b
000000f0: 3b29 a039 25e3 be39 eb7b d139 54a0 1d39
00000100: dd97 1e39 2003 9829 9e86 0938 ad68 b737
00000110: 30ee a439 d5e4 9a28 adca a439 6a7c 9339
00000120: da5f e438 5990 ec29 e9e8 1e39 cd75 4e38
00000130: 0000 0000 9b00 e037 285b 0739 0611 023a
00000140: 29da a33a e5ce b139 f08e b339 2d0b a437
00000150: 4dfa 913a bdbb 3a39 eb3d 4d3a 3396 9138
00000160: ca3c 6b39 17c7 8b39 4583 b238 4650 e928
00000170: 8e41 1036 6aff 013a 4d9d 4235 a595 103a
00000180: 47fd a13a 0000 0000 5e14 6e39 b285 7238
00000190: 4211 4738 0000 0000 78e3 453a 0e22 9538
000001a0: c6cb fe39 0000 0000 beaa d639 c7ca a439
000001b0: 0000 0000 4550 2b39 2481 f636 6646 413a
000001c0: 47c5 333a e7da 1f3a 6dde 8337 b662 9039
000001d0: da9e 0739 cc31 813a 7adb 993a 98b7 9b39
000001e0: 9d4e bf39 f736 a338 bba6 2839 0000 0000
000001f0: 3005 2439 effc 083a 2677 ac38 2d02 8139
00000200: 56da 8138 f396 2527 376e 9a39 bcf1 2939
00000210: b538 8b39 57ba 802b d779 d339 d2d2 7739
00000220: 3c9f 4a39 03f8 352a c12d a839 e806 a637
00000230: 61c4 0027 a519 df34 cef1 173a 3707 ea39
00000240: b54a 0c3a 0214 8439 359a df39 2bae b437
00000250: 0b8f a53a fa9c e238 7924 4f3a 427d 0d37
00000260: 5c2d 7738 3142 0339 256e 4a39 196a 1428
00000270: bf65 5538 e380 2739 51f9 5f38 ec70 7939
00000280: 967c a73a aa70 6a29 9911 0e39 86e9 0d39
00000290: 69c4 7139 0000 0000 1192 f439 ee18 df39
000002a0: 70a0 983a 0000 0000 05f8 de37 4b09 e439
000002b0: 0000 0000 75e6 5337 1028 e239 51cf 343a
000002c0: 0d1a b83a 820e 173a c0be 3639 4873 fa37
000002d0: 48d3 0f3a a551 733a ca40 cc3a 8ea1 7a38
000002e0: bc8a dd38 a696 1f39 b195 cb38 c192 4229
000002f0: df50 b038 c8c3 8c3a 4771 a138 f940 9539
00000300: 6f9e c03a 9549 ab29 f114 0a36 9031 fe39
00000310: b437 533a 8a34 5827 dc95 de3a 2550 1739
00000320: 9950 6f39 8f27 0428 2195 403a 0192 6239
00000330: a616 9727 8c96 0b3a 5f5e 5039 87d9 8039
00000340: 9b98 cc3a 8587 a738 bed9 9039 670c 0639
00000350: 9044 1139 7899 833a 663c 0539 1f8c ce38
00000360: b174 5c38 228c 9139 9967 6c3a 2be8 832a
00000370: 7b42 ea35 aa95 1c3b f686 9239 143a 0d3a
00000380: 1bd8 023a 1c22 2b2a eda1 cf38 dbbe 0d39
00000390: e594 1e3a 8b83 552a f34c b43a 2d02 133a
000003a0: ad93 013b 0c14 4a29 a170 fc39 7c4d 4f38
000003b0: fc0a 9524 639f c538 f6e6 3d39 b0e6 ef39
000003c0: 1ef8 883a 0fbe a53a 43b6 373a 3709 7f37
000003d0: 27ed 2d3a 624a 943a bc29 5c3a e307 7f3a
000003e0: 09eb ad3a 5e0d f639 3274 fc38 c1b8 322b
000003f0: 7566 9b38 bf15 ce3a b80b 8637 7bcf 0e3a

exp_avg f4 [16]
-0.00028380804 -0.0012379233 -0.0005910428 -0.00059324555 0.0002968564 0.0002084743 0.00031567126 8.460423e-05
-0.0011507523 -0.00070643227 -5.7965484e-05 6e-45 0.0009972327 -0.0009845106 0.00046452493 0.0010451367
00000000: 12cc 94b9 d041 a2ba 36f0 1aba 0984 1bba
00000010: 64a3 9b39 e599 5a39 ae80 a539 8d6d b138
00000020: d7d4 96ba de2f 39ba f71f 73b8 0400 0000
00000030: 94b5 823a b20a 81ba 7b8b f339 f8fc 883a

exp_avg_sq f4 [16]
2.6350115e-05 1.7981036e-05 1.0075149e-05 1.4326785e-05 9.983102e-06 1.9309547e-05 1.627708e-05 2.0620108e-05
1.4450961e-05 1.6036915e-05 1.3921048e-05 1.2320582e-10 7.67227e-06 2.734039e-05 1.8342082e-05 6.274609e-06
00000000: 710a dd37 fbd5 9637 6f08 2937 135d 7037
00000010: 197d 2737 f0fa a137 c38a 8837 58f9 ac37
00000020: 6872 7237 0387 8637 728e 6937 5b77 072f
00000030: 26b8 0037 0a59 e537 52dd 9937 7b8a d236

exp_avg f4 [10, 16]
0.00012849757 0.00034609833 -0.011799383 0.0010851859 -0.002847738 -0.00727194 -6.423482e-05 0.00021457663
-0.013957797 -0.0043227226 -0.01242357 6e-45 1.8071867e-05 0.0004530072 -1.9930798e-05 3.2183994e-05
0.0010553843 0.0011289058 0.012369415 -0.00056966254 0.0008924088 0.009499136 0.0021342295 0.004836085
0.0001108567 0.0030903532 0.00898818 6e-45 0.013023087 0.00058865163 0.0118097225 0.020153696
0.0007190955 3.2239038e-06 -0.007733754 0.0015166616 0.006980603 0.008175468 -0.004878096 0.0035574452
0.0026978548 -0.006516761 0.0071684113 6e-45 -0.007920237 0.00036418939 -0.0014463647 -0.004563906
4.1491232e-05 0.0057178736 0.0015291978 0.0038713445 -0.004407985 -0.003430581 0.004927046 0.004328139
0.0003625475 0.00069585955 0.00016668504 6e-45 0.0013248468 0.009334125 0.0061251055 0.00015731818
0.001994322 -0.0025435896 -0.002484198 0.0006693587 -0.0062947725 0.0018892245 -0.00078959554 -0.00066492707
-0.0012279354 6.375325e-06 0.00015383252 6e-45 0.00019073028 -0.005599255 0.0036501784 -0.000108788
0.0013269517 -0.0089594945 0.00072245946 -0.0017241822 0.0011349618 0.0049452493 -0.0016691394 -0.01587021
0.0025739134 0.00027146938 0.002175317 6e-45 -0.0043702032 -0.016189823 -0.005817945 -2.8403545e-06
0.0019085134 -0.009615668 0.001660884 0.00022356487 0.0002112864 -0.0017400021 3.2847963e-06 8.280942e-05
0.0030669428 0.0012992105 -0.00097269757 -6e-45 5.7339125e-06 6.905369e-05 0.0004902559 1.916308e-05
-0.0014702807 -6.0388582e-05 -0.0009680011 -0.003060623 -0.00092201267 0.0006831916 -0.005666624 0.00015868837
0.00026787352 0.0047481996 2.9000377e-05 6e-45 0.00016453904 0.0010778299 0.0038725766 -0.0012052828
0.00018549792 0.0013106114 0.0045205783 -0.010123998 0.00011817781 -0.0025162627 0.00024021717 0.0004589421
0.005042134 -0.00024035321 -0.005273089 6e-45 -0.0024001198 0.0062771775 0.0052238354 -0.014847624
-0.005889469 0.012672458 0.0021828262 0.008112365 0.0051350836 -0.010233462 0.005762957 0.0028984712
0.0010636323 0.0009683973 -1.2037694e-05 6e-45 -3.641981e-05 0.0036250832 -0.023887392 0.00036612342
00000000: 4ebd 0639 8874 b539 3352 41bc cc3c 8e3a
00000010: 1ea1 3abb 7449 eebb ceb5 86b8 faff 6039
00000020: 3eaf 64bc a0a5 8dbb 3b8c 4bbc 0400 0000
00000030: 0a99 9737 9981 ed39 1031 a7b7 4dfd 0638
00000040: d254 8a3a cbf7 933a 16a9 4a3c 6855 15ba
00000050: 8af0 693a 44a2 1b3c 6ede 0b3b 0578 9e3b
00000060: bd7b e838 8687 4a3b 2943 133c 0400 0000
00000070: c95e 553c be4f 1a3a 917d 413c 5d19 a53c
00000080: af81 3c3a 3f5a 5836 6e6b fdbb b8ca c63a
00000090: 8bbd e43b 66f2 053c 6fd8 9fbb 0724 693b
000000a0: 7ece 303b 8e8a d5bb fee4 ea3b 0400 0000
000000b0: e2c3 01bc acf0 be39 f293 bdba d28c 95bb
000000c0: df06 2e38 005d bb3b 5d6f c83a 62b6 7d3b
000000d0: dc70 90bb 99d3 60bb 0f73 a13b 10d3 8d3b
000000e0: 4d14 be39 586a 363a 2dc8 2e39 0400 0000
000000f0: 7ba6 ad3a 28ee 183c 1cb5 c83b c7f5 2439
00000100: 2cb3 023b 5ab2 26bb edcd 22bb e777 2f3a
00000110: 6144 cebb db9f f73a dcfc 4eba 804e 2eba
00000120: adf2 a0ba a0eb d536 1a4e 2139 0400 0000
00000130: c5fe 4739 f579 b7bb d537 6f3b 1d25 e4b8
00000140: 1ced ad3a d8ca 12bc 6f63 3d3a f4fd e1ba
00000150: 00c3 943a c20b a23b 06c7 daba 3e02 82bc
00000160: 1aaf 283b 0154 8e39 c38f 0e3b 0400 0000
00000170: ec33 8fbb 85a0 84bc 76a4 bebb eb9c 3eb6
00000180: 1527 fa3a 098b 1dbc 05b2 d93a bd6c 6a39
00000190: c38c 5d39 c810 e4ba 5f70 5c36 f8a9 ad38
000001a0: c3fe 483b 454a aa3a a1fc 7eba 0400 0080
000001b0: ef65 c036 ebd0 9038 8484 003a 67c0 a037
000001c0: 6fb6 c0ba bf49 7db8 74c1 7dba bc94 48bb
000001d0: 39b3 71ba 3618 333a 16af b9bb 9665 2639
000001e0: 6071 8c39 c996 9b3b d645 f337 0400 0000
000001f0: 1d88 2c39 f845 8d3a 0ecb 7d3b 94fa 9dba
00000200: 3882 4239 d2c8 ab3a 5c21 943b 20df 25bc
00000210: 3bd6 f738 e2e7 24bb cee2 7b39 2a9e f039
00000220: 7c38 a53b 5307 7cb9 e0c9 acbb 0400 0000
00000230: 544b 1dbb c8b0 cd3b b52c ab3b 7343 73bc
00000240: 72fc c0bb 24a0 4f3c bf0d 0f3b bae9 043c
00000250: 3444 a83b 40aa 27bc 30d7 bc3b 47f4 3d3b
00000260: 9469 8b3a 0bdc 7d3a 81f5 49b7 0400 0000
00000270: 79c1 18b8 ce92 6d3b 7eaf c3bc 41f4 bf39
